AI-Visual/GRUTRAINING/gru_numnum_gpu_test.pt (torch, 817805 bytes, 6 tensors)

gru.weight_ih_l0 f4 [768, 2]
-6.8472347 -6.0078673 -1.7865218 0.7905584 2.087861 2.0838413 2.813278 2.818642
1.9480673 1.838819 -0.60866183 -1.2587517 -5.5480604 -4.0589085 -1.1965799 -2.3067381
3.3303359 -1.5570611 0.48183846 0.23168194 1.2106724 0.006379671 -0.07651376 1.7310878
-1.8238177 -3.4663966 0.5840853 -1.2958924 0.3522108 -0.35824913 -1.5559072 -3.4866157
2.0764608 1.4114894 1.7389178 -0.55679613 0.9363637 0.4267622 -6.818662 -4.227171
-2.9734242 -0.20816194 -0.53126997 -0.70398986 -3.3248222 -2.8964245 -2.7875404 -0.47818765
2.3866587 -1.6336702 -1.6453152 0.2955862 -2.3554828 1.5152292 3.123338 3.7826009
0.399882 0.90684575 -2.3598006 -1.1286557 -0.13606027 -1.4494928 -5.3014026 -2.9759815
4.298921 3.3312674 2.6418998 0.43767628 0.8322597 -0.658014 -0.17708606 -0.8478599
-0.66480273 0.27937478 -0.92216706 -2.9967144 0.43136016 0.17357713 4.4190187 2.3631186
-1.357228 2.1619627 0.26505306 0.3633895 1.2124038 0.61083984 -2.6978526 -2.4511042
-1.8688724 -1.0076199 4.330369 4.4596953 -2.5109694 -0.5859552 0.6268106 -1.1706696
-1.1665736 -0.5966603 0.0049974034 -0.24657738 1.4514476 1.5782592 -3.5080054 -3.5380378
0.3425714 0.26748958 0.04940902 -2.4927542 -0.598863 -1.1072203 0.46298578 0.9335766
1.3630273 -1.4041924 -0.9399569 -1.972051 -3.4555776 -1.7639722 -2.4061968 -1.5138323
-0.61246216 1.5242426 -4.2882347 5.450597 -2.2066576 -2.663331 1.8628973 -1.2384741
-0.83937365 -3.847895 2.6244879 1.3639102 2.0474658 1.5044899 1.5573715 -0.26363537
1.4532785 1.1832182 1.281741 -0.37323925 -3.2268605 -2.1240711 -3.767032 -0.81595474
1.2329745 -0.1506636 -4.255454 -1.7117403 0.6410003 -0.39828762 -3.400899 -4.6726832
-1.7793325 0.11244586 2.5943131 3.0747135 -0.11864987 -3.3680806 4.913402 -2.8106253
1.8579698 5.03043 -0.38726908 -3.0175538 -0.31296661 0.34946686 2.1921566 0.6554335
-1.8854479 -3.6761913 0.8950916 1.4582452 -2.1497748 -0.4831381 -1.582729 -2.0734258
-1.0386992 1.3779938 0.001025453 0.5064279 -3.8177795 -2.6972563 -0.85421133 -0.30591065
4.9921784 -4.2018075 -1.2721272 -1.5019408 -2.192831 0.18941489 3.9141757 -1.6324121
-2.5470738 -2.70567 3.149005 0.2271331 -4.57316 -4.591875 -3.4250197 4.1543455
-1.414352 -0.7306404 2.275078 -2.6580465 0.93554556 0.7396375 3.965401 -3.2295725
-1.037189 -3.5150952 -1.3643645 1.1491299 -1.5874461 0.39677617 0.09998418 0.71129173
-2.7166982 -0.8802694 1.0262452 -0.70841527 0.23582876 -2.0661213 -0.44193116 1.3093988
0.5026587 -2.1691473 0.25366208 0.39556295 -1.1912568 -0.3244894 0.972241 -1.1621169
0.3812201 0.7479692 -6.5187893 -4.656105 0.28356475 1.1053771 -0.89965945 -0.20531364
-3.0837064 3.9211504 -1.459154 -0.08218411 -2.66015 -3.6306531 2.7636049 -0.924136
-0.26819053 -0.025505802 3.8991323 3.3547087 -0.33311054 -0.032534238 -3.0420675 -3.4906723
00000000: 8c1c dbc0 7340 c0c0 bfac e4bf 0962 4a3f
00000010: 849f 0540 a85d 0540 bf0c 3440 a164 3440
00000020: 455a f93f 6c5e eb3f 43d1 1bbf c71e a1bf
00000030: b689 b1c0 94e2 81c0 8829 99bf 99a1 13c0
00000040: 3924 5540 c74d c7bf 88b3 f63e 083e 6d3e
00000050: 50f7 9a3f 8f0c d13b 3fb3 9cbd 4994 dd3f
00000060: dc72 e9bf 71d9 5dc0 9d86 153f cddf a5bf
00000070: f954 b43e 6e6c b7be f827 c7bf b624 5fc0
00000080: bce4 0440 afab b43f dc94 de3f 318a 0ebf
00000090: 88b5 6f3f 9380 da3e 7b32 dac0 fc44 87c0
000000a0: 954c 3ec0 6728 55be 4f01 08bf ae38 34bf
000000b0: e3c9 54c0 055f 39c0 1067 32c0 03d5 f4be
000000c0: 04bf 1840 1b1c d1bf b099 d2bf 1357 973e
000000d0: 3bc0 16c0 08f3 c13f c5e4 4740 2216 7240
000000e0: 55bd cc3e 0b27 683f f906 17c0 ca77 90bf
000000f0: 6253 0bbe fb88 b9bf 17a5 a9c0 7b76 3ec0
00000100: c390 8940 7c33 5540 e314 2940 1b17 e03e
00000110: f90e 553f 9b73 28bf 0c56 35be 590d 59bf
00000120: 8330 2abf 360a 8f3e 2413 6cbf 2bca 3fc0
00000130: 3ddb dc3e 34be 313e 9a68 8d40 563d 1740
00000140: a6b9 adbf 995d 0a40 09b5 873e 300e ba3e
00000150: 0c30 9b3f 0060 1c3f 9ea9 2cc0 e4de 1cc0
00000160: 3637 efbf b0f9 80bf 6292 8a40 d3b5 8e40
00000170: b9b3 20c0 2901 16bf a976 203f 80d8 95bf
00000180: 4952 95bf bbbe 18bf 42c1 a33b c87e 7cbe
00000190: 09c9 b93f 6604 ca3f 2983 60c0 366f 62c0
000001a0: 8565 af3e 65f4 883e 1d61 4a3d 4989 1fc0
000001b0: 164f 19bf 65b9 8dbf 790c ed3e e0fe 6e3f
000001c0: ae77 ae3f 94bc b3bf 04a1 70bf 2b6c fcbf
000001d0: 2f28 5dc0 d7c9 e1bf 21ff 19c0 42c5 c1bf
000001e0: 52ca 1cbf 621a c33f 3839 89c0 4a6b ae40
000001f0: e139 0dc0 0474 2ac0 6b73 ee3f 5286 9ebf
00000200: 31e1 56bf e943 76c0 9cf7 2740 9c94 ae3f
00000210: ae09 0340 2093 c03f f357 c73f 37fb 86be
00000220: 0805 ba3f b273 973f 1710 a43f 3719 bfbe
00000230: e284 4ec0 c8f0 07c0 0d17 71c0 69e2 50bf
00000240: 1cd2 9d3f 8f47 1abe ae2c 88c0 4e1a dbbf
00000250: 9818 243f 5bec cbbe 54a8 59c0 9f86 95c0
00000260: 2bc1 e3bf 044a e63d 3a09 2640 1bc8 4440
00000270: b4fe f2bd a28e 57c0 973a 9d40 49e1 33c0
00000280: f4d1 ed3f 48f9 a040 2248 c6be 9a1f 41c0
00000290: 293d a0be 52ed b23e 4b4c 0c40 7dca 273f
000002a0: 5b56 f1bf b846 6bc0 b924 653f c7a7 ba3f
000002b0: e995 09c0 e15d f7be dd96 cabf 02b3 04c0
000002c0: 18f4 84bf 1a62 b03f 7e68 863a 42a5 013f
000002d0: 8056 74c0 d99f 2cc0 98ad 5abf 52a0 9cbe
000002e0: edbf 9f40 3575 86c0 10d5 a2bf 993f c0bf
000002f0: 5857 0cc0 faf5 413e db81 7a40 e1f2 d0bf
00000300: 4203 23c0 b329 2dc0 4c89 4940 9495 683e
00000310: 5457 92c0 a4f0 92c0 8633 5bc0 66f0 8440
00000320: 7d09 b5bf 400b 3bbf e19a 1140 6f1d 2ac0
00000330: ea7f 6f3f e258 3d3f 21c9 7d40 51b1 4ec0
00000340: 9cc2 84bf 52f7 60c0 7fa3 aebf b016 933f
00000350: 6f31 cbbf 3f26 cb3e 81c4 cc3d 3717 363f
00000360: 62de 2dc0 5659 61bf 015c 833f b45a 35bf
00000370: 187d 713e 553b 04c0 cd44 e2be 619a a73f
00000380: 3eae 003f 4fd3 0ac0 ffdf 813e 3a87 ca3e
00000390: 1a7b 98bf 7a23 a6be c9e4 783f 3fc0 94bf
000003a0: 482f c33e e97a 3f3f ec99 d0c0 d0fe 94c0
000003b0: 662f 913e ff7c 8d3f 1550 66bf bd3d 52be
000003c0: 725b 45c0 21f4 7a40 8fc5 babf 2550 a8bd
000003d0: e63f 2ac0 9f5c 68c0 e7de 3040 2d94 6cbf
000003e0: 4550 89be 8bf1 d0bc 628b 7940 8cb3 5640
000003f0: 778d aabe 9f42 05bd 3cb1 42c0 2d67 5fc0

gru.weight_hh_l0 f4 [768, 256]
0.3882017 0.19215423 0.026336202 0.33464327 0.002387124 -0.20778535 -0.26359606 0.07088135
0.743184 -0.31388685 0.121436484 -0.11892287 -0.40224317 0.14097226 -0.4172932 0.276553
-0.34442574 0.05232019 0.38444296 0.38876966 -0.03476129 0.35170436 -0.4930875 -0.20553043
0.0023544976 -0.41503176 -0.18009666 -0.05519067 0.16096382 0.0033074308 0.19664195 -0.27708402
-0.20044415 0.33852786 -0.2524618 -0.50428855 -0.10183189 -0.044125956 -0.27376625 -0.4847349
-0.26083708 0.15396468 0.4976281 1.8086355 0.3499761 -0.4144594 -0.3990864 1.1600015
1.153203 -0.83132917 -0.1284613 0.6949002 -0.26143628 0.27042934 0.06681136 -0.4547598
-0.22064243 -0.14937197 -0.7102361 -0.23894541 -0.044014007 0.9465639 -0.112404734 0.7801075
0.20761451 -0.47582966 0.33196676 0.1397039 -0.5788733 -0.10019156 -0.63630337 0.8191518
-0.026781946 -0.31780624 -0.07018603 -0.046220575 0.059199255 0.46498033 -0.076237366 -0.13990618
-0.46259096 0.13740028 0.066007026 0.3392526 -0.20273417 -0.2366357 0.45875397 0.26003334
-0.23379861 0.14540906 0.4034308 0.4660232 0.14132985 -0.7830284 -0.46365795 0.49409714
0.24246083 -0.5218847 -0.24531904 0.4178317 -0.8111484 -0.16628371 -0.11741311 -0.01612075
0.18141921 -0.48592782 0.40402457 0.03026948 -0.1749612 0.035560943 -0.36367378 -0.18266878
0.08309023 0.4069909 -0.4071329 -0.02197366 -0.022418657 -0.17314531 -0.17702353 -0.51548564
-0.6276746 0.10540064 0.28264415 0.49137953 0.2901536 0.063386545 -0.0014981598 0.15092587
0.71702754 0.06072777 0.17736784 0.0037975528 -0.2527616 -1.6179221 0.2411125 0.17387602
0.23501864 0.3454499 0.30058298 0.32317787 -0.71754825 0.006920263 0.48511183 0.24461061
0.5613948 0.015584579 -0.41552052 0.028736452 -0.19097894 0.2605202 -0.11455818 0.52320737
0.08237412 -0.019433903 -0.5674681 0.0838014 0.1916505 0.21038783 -0.35100937 0.32611412
0.14403105 -0.10206475 0.12128842 -0.086168855 0.04342269 0.24745162 -0.46057978 0.34599063
-0.28732547 0.25071537 0.19772263 0.5621929 -0.017752416 0.3231699 0.056698184 0.36694148
0.2991127 0.8561585 0.55241436 0.266035 -0.1345374 -0.28685734 0.22474541 -0.49567634
-0.25977683 0.5123092 0.22760054 -0.26691487 0.10649972 -0.46748948 0.7627904 0.38347843
-0.6643702 0.24316622 0.15512954 -0.20041528 -0.106503054 -0.094914146 0.18120663 -0.11261862
0.3485886 -0.33988988 0.38487276 0.079563655 -0.62851185 0.3652202 0.31497425 -0.5821411
0.016567156 0.020706156 -0.434807 0.083346345 -0.22477674 -0.38497767 0.13226178 0.040100574
-0.2809487 0.42510653 0.23538882 -0.7795488 0.5650559 -0.19143564 0.6729003 0.16847134
0.20531794 -0.11356786 -0.059805527 0.20061897 0.2096628 -0.308176 -0.19384323 -0.78095865
-0.58018154 -0.7579765 0.5616184 0.6605907 -0.012851351 0.13399346 -0.15444256 0.25759658
0.07792604 0.3456551 -0.20621619 0.089899704 0.576975 0.47595188 -1.0373963 0.79715353
0.4298907 -0.020732792 0.90080035 -0.15759328 -0.12702577 -0.3799636 0.40634084 0.64847696
00000000: 60c2 c63e 14c4 443e 05bf d73c 5d56 ab3e
00000010: 4c71 1c3b afc5 54be 10f6 86be 3e2a 913d
00000020: 4e41 3e3f c7b5 a0be b1b3 f83d d58d f3bd
00000030: d1f2 cdbe 085b 103e 74a7 d5be 5b98 8d3e
00000040: 9258 b0be b24d 563d b5d5 c43e d10c c73e
00000050: db61 0ebd 9812 b43e f775 fcbe 9276 52be
00000060: ea4d 1a3b 0b7f d4be 426b 38be 9d0f 62bd
00000070: b3d3 243e 7bc1 583b 825c 493e f5dd 8dbe
00000080: 3b41 4dbe 8653 ad3e ac42 81be 0e19 01bf
00000090: 3d8d d0bd 6bbd 34bd 172b 8cbe 2c2f f8be
000000a0: 708c 85be eba8 1d3e 1cc9 fe3e 5e81 e73f
000000b0: 1130 b33e 0634 d4be 0d55 ccbe ee7a 943f
000000c0: 289c 933f fdd1 54bf 5c8b 03be fbe4 313f
000000d0: fada 85be b775 8a3e 65d4 883d 47d6 e8be
000000e0: 17f0 61be f7f4 18be 08d2 35bf 1bae 74be
000000f0: 0848 34bd 0352 723f 7434 e6bd 20b5 473f
00000100: e698 543e f29f f3be 8cf7 a93e 8a0e 0f3e
00000110: 0a31 14bf 3c31 cdbd c7e4 22bf efb3 513f
00000120: d065 dbbc 80b7 a2be b1bd 8fbd c951 3dbd
00000130: eb7a 723d e711 ee3e 5622 9cbd 9143 0fbe
00000140: b9d8 ecbe a9b2 0c3e b12e 873d 84b2 ad3e
00000150: 8c99 4fbe a150 72be cde1 ea3e 1723 853e
00000160: e768 6fbe 1de6 143e 7b8e ce3e 989a ee3e
00000170: c6b8 103e 8d74 48bf 9364 edbe 4dfa fc3e
00000180: a747 783e 3c9a 05bf ea34 7bbe 09ee d53e
00000190: 6ca7 4fbf 4746 2abe 4976 f0bd aa0f 84bc
000001a0: f5c5 393e 88cb f8be 4fdc ce3e b3f7 f73c
000001b0: 0729 33be 5aa8 113d 7333 babe 860d 3bbe
000001c0: 362b aa3d 1c61 d03e b973 d0be 1b02 b4bc
000001d0: 55a7 b7bc 014d 31be a845 35be def6 03bf
000001e0: 48af 20bf 4adc d73d bcb6 903e 1996 fb3e
000001f0: 038f 943e ced0 813d e75d c4ba 508c 1a3e
00000200: 1e8f 373f afbd 783d ea9f 353e 5de0 783b
00000210: f869 81be 1218 cfbf 32e6 763e 8e0c 323e
00000220: baa8 703e cfde b03e 03e6 993e 9277 a53e
00000230: 3eb1 37bf 60c3 e23b 9460 f83e 347b 7a3e
00000240: 92b7 0f3f 7656 7f3c 1bbf d4be b568 eb3c
00000250: fc8f 43be e762 853e 7b9d eabd ebf0 053f
00000260: c3b3 a83d d933 9fbc 9745 11bf 12a0 ab3d
00000270: 0740 443e e86f 573e 80b7 b3be 6ef8 a63e
00000280: e07c 133e 5307 d1bd 1066 f83d 4c79 b0bd
00000290: fedb 313d f563 7d3e 1dd1 ebbe af25 b13e
000002a0: 531c 93be c45d 803e cd77 4a3e e0eb 0f3f
000002b0: 846d 91bc 8676 a53e 5b3c 683d c1df bb3e
000002c0: 4d25 993e 342d 5b3f 076b 0d3f bd35 883e
000002d0: 2cc4 09be f7de 92be a923 663e 4ac9 fdbe
000002e0: 7801 85be b226 033f 1e10 693e 11a9 88be
000002f0: 861c da3d c85a efbe 3b46 433f 4957 c43e
00000300: 2a14 2abf 9100 793e 47da 1e3e aa39 4dbe
00000310: 461e dabd 5962 c2bd 3b8e 393e 97a4 e6bd
00000320: 347a b23e 0c06 aebe 0b0e c53e 45f2 a23d
00000330: 27e6 20bf 24fe ba3e 4e44 a13e 3307 15bf
00000340: d8b7 873c f59f a93c 069f debe 7db1 aa3d
00000350: e02b 66be cb1b c5be a26f 073e 8040 243d
00000360: 82d8 8fbe 90a7 d93e c409 713e 8390 47bf
00000370: 81a7 103f b407 44be 3243 2c3f c083 2c3e
00000380: de3e 523e 4496 e8bd a4f6 74bd 0f6f 4d3e
00000390: d8b1 563e 3fc9 9dbe d77e 46be e8ec 47bf
000003a0: c786 14bf bf0a 42bf 39c6 0f3f 791c 293f
000003b0: 798e 52bc 9535 093e 3126 1ebe b3e3 833e
000003c0: b097 9f3d b5f9 b03e 562a 53be 561d b83d
000003d0: a2b4 133f f7af f33e 67c9 84bf 4112 4c3f
000003e0: a21a dc3e d1d7 a9bc da9a 663f 2260 21be
000003f0: 0b13 02be 978a c2be e80b d03e 9602 263f

gru.bias_ih_l0 f4 [768]
-0.6180389 -0.200169 -0.18880498 -1.0285093 -0.53829753 -0.5652437 -1.1180369 0.006963444
-0.9383813 -0.77682006 -0.6003671 -0.27554044 -0.66456753 -0.9993697 -0.28803855 -0.1959109
-0.27702957 -0.5329375 0.31584805 -0.95570356 0.2576152 -0.96200174 -0.6178097 -0.02227365
-0.39930528 -0.7941534 -0.8895532 -0.43939662 -0.26779225 -0.5470598 -0.53483427 -0.61371166
-0.9711686 -0.78461134 0.19921617 -0.38884795 -0.5201616 -0.32140377 -0.18705769 -0.7759938
-0.6624788 -0.099131435 -0.6998511 -0.38361236 -0.35260174 -0.6258092 -0.4176178 0.20960918
-0.48670885 -0.15054274 -0.29962015 -0.051542334 -0.50852615 -0.0582707 -0.30131984 -0.4143675
-0.22303995 -0.34902254 -0.28737783 -0.5921854 -0.7135981 -0.98969096 0.07913789 -0.47893468
-0.792723 -0.77389616 -0.34881085 -0.18623775 -0.7893928 -0.029703131 0.07435601 -0.48424935
-0.17010063 -0.64294124 -0.22567022 -0.68642706 0.262234 -0.46832216 -0.88298434 -0.5491564
-0.5031754 -0.09119769 -1.0145252 -0.6320573 -0.6583776 -0.4398122 0.029422065 0.108286634
-0.5163378 -0.11779881 -1.0943977 0.02601293 -0.7206298 -0.80150175 0.07674981 -0.65018064
-0.5128803 -0.13485162 -0.25806704 -0.48842144 -0.51049113 -0.50309914 -0.67205095 -0.9936764
-0.6592853 -0.408654 -0.6016213 -0.21707712 -0.3038196 -1.1409603 0.060610604 -0.32022128
-0.89877313 -0.3309031 -0.5471722 -0.3201136 -0.32804614 -0.116936795 -0.13092485 -0.66077936
-0.67653835 -0.5835532 -0.0889691 -0.7319072 -0.3753464 -0.9055106 0.31154507 -0.17072003
-0.58760685 -0.53607047 -1.2225251 -1.2911845 -0.17293547 -0.5524642 -0.9517164 -0.93933195
-0.8522493 -0.676466 -0.6244935 0.0077322284 -0.22237578 -0.32312626 -0.37985364 -0.18979998
-0.18836066 -0.9620646 -0.7375241 -0.70838046 -0.20891346 -0.46438465 -0.65576476 -0.28306633
-0.6712086 -0.5217736 -0.73089474 -0.5565541 -0.3813765 -0.66513926 -0.5317193 -0.8655204
-0.9745864 -0.07871211 -0.30636042 -0.13408545 -0.26198396 0.06454836 -0.26243016 -0.1214993
-0.5780962 -0.34629017 -0.6257573 -0.6666822 -0.78478414 -0.06740823 -0.13531086 -0.23922552
-0.7848054 -0.028286241 -0.0063791014 -0.13099273 -0.12701993 -0.12088563 -0.47482836 -0.30002272
-1.1263148 -0.630981 -0.54151934 -0.30285284 -0.5604274 0.021689648 -1.2899467 -0.3667187
-1.0130254 -0.33216393 0.100621656 -0.21362276 -0.19403505 -0.6077318 -0.695066 -0.3322336
-1.2938977 -0.7278486 -0.50104105 -0.77824885 -0.45078623 0.049600106 -0.87579995 -0.43792778
-0.82364523 -1.0999013 -0.5889686 -0.3199004 -0.7015746 -1.0416052 -0.24265492 -0.597077
-0.29727283 -0.51693803 -0.9338739 -0.5807042 -0.1253523 -0.14779791 -0.5752235 -0.681978
-0.67754525 -0.45854372 -0.18127091 -0.8313332 -0.7883293 -0.50252765 -0.07076476 -0.3027313
-0.5605786 -0.18765411 -0.397139 -0.59787977 -0.9607646 -0.3008961 -0.37538478 -1.1209567
-0.7463875 -0.5992506 -1.0357053 0.13218457 -1.2235609 0.078019604 -0.52418506 -0.109012134
-0.66585636 -0.043789186 -0.8237627 -0.17666847 -0.066301964 -0.28413895 -0.5864713 -0.6557357
00000000: cc37 1ebf 1af9 4cbe 1856 41be 31a6 83bf
00000010: decd 09bf d0b3 10bf d51b 8fbf 9a2d e43b
00000020: c239 70bf aedd 46bf a9b1 19bf a313 8dbe
00000030: 1921 2abf b1d6 7fbf ca79 93be de9c 48be
00000040: d2d6 8dbe 986e 08bf d6b6 a13e fda8 74bf
00000050: 24e6 833e bf45 76bf c728 1ebf 3b77 b6bc
00000060: be71 ccbe a34d 4bbf c2b9 63bf 98f8 e0be
00000070: 111c 89be 1c0c 0cbf e6ea 08bf 351c 1dbf
00000080: 819e 78bf 4adc 48bf 53ff 4b3e 1417 c7be
00000090: 5029 05bf 098f a4be 0d8c 3fbe 88a7 46bf
000000a0: 3698 29bf 6c05 cbbd 7129 33bf d768 c4be
000000b0: 3788 b4be 0835 20bf 00d2 d5be caa3 563e
000000c0: e731 f9be e027 1abe d067 99be 0e1e 53bd
000000d0: c52e 02bf 42ad 6ebd 9846 9abe fa27 d4be
000000e0: 9664 64be 15b3 b2be 3023 93be 7699 17bf
000000f0: 5dae 36bf 635c 7dbf 0c13 a23d ed36 f5be
00000100: e5ef 4abf 0f1e 46bf 5697 b2be 1cb5 3ebe
00000110: a615 4abf fb53 f3bc f747 983d 88ef f7be
00000120: dc2e 2ebe cc97 24bf 1816 67be afb9 2fbf
00000130: 8943 863e ecc7 efbe 430b 62bf 8495 0cbf
00000140: 1ad0 00bf dbc5 babd f6db 81bf 82ce 21bf
00000150: 6f8b 28bf 112f e1be 8b06 f13c 62c5 dd3d
00000160: b72e 04bf 8140 f1bd 3915 8cbf 1119 d53c
00000170: 327b 38bf 382f 4dbf 012f 9d3d 3d72 26bf
00000180: 204c 03bf 8b16 0abe 5d21 84be 6012 fabe
00000190: 8caf 02bf 1bcb 00bf 880b 2cbf 9461 7ebf
000001a0: ecc6 28bf 193b d1be db03 1abf 7749 5ebe
000001b0: 3e8e 9bbe fd0a 92bf d342 783d 0bf4 a3be
000001c0: ff15 66bf 226c a9be 7a13 0cbf eee5 a3be
000001d0: aaf5 a7be 8f7c efbd 2a11 06be d628 29bf
000001e0: 9e31 2dbf be63 15bf 6e35 b6bd 455e 3bbf
000001f0: 672d c0be 8bcf 67bf d682 9f3e 3bd1 2ebe
00000200: 676d 16bf ea3b 09bf b47b 9cbf 8945 a5bf
00000210: ff15 31be 4b6e 0dbf b0a3 73bf 0f78 70bf
00000220: 032d 5abf e02c 2dbf cede 1fbf a25e fd3b
00000230: 7ab6 63be ce70 a5be 2d7c c2be ed5a 42be
00000240: 9ee1 40be de49 76bf 61ce 3cbf 6c58 35bf
00000250: 69ed 55be d3c3 edbe 33e0 27bf 12ee 90be
00000260: 54d4 2bbf f492 05bf eb1b 3bbf 547a 0ebf
00000270: c843 c3be 9146 2abf c21e 08bf bf92 5dbf
00000280: 7f7e 79bf d133 a1bd 46db 9cbe b24d 09be
00000290: c322 86be ee31 843d 3f5d 86be a0d4 f8bd
000002a0: 1dfe 13bf f24c b1be a131 20bf afab 2abf
000002b0: 9de7 48bf 530d 8abd ee8e 0abe 89f7 74be
000002c0: 02e9 48bf 8cb8 e7bc c807 d1bb f522 06be
000002d0: 8311 02be e392 f7bd b41c f3be 949c 99be
000002e0: 152b 90bf f987 21bf 03a1 0abf 870f 9bbe
000002f0: 2c78 0fbf 7dae b13c f91c a5bf 8ec2 bbbe
00000300: d1aa 81bf 6411 aabe ba12 ce3d edbf 5abe
00000310: 20b1 46be 5094 1bbf d8ef 31bf 861a aabe
00000320: 719e a5bf 4954 3abf 3a44 00bf 513b 47bf
00000330: 74cd e6be 7b29 4b3d 6d34 60bf 1238 e0be
00000340: 6ada 52bf 91c9 8cbf a5c6 16bf fcc9 a3be
00000350: 659a 33bf 5253 85bf 887a 78be 0ada 18bf
00000360: 2534 98be 0d56 04bf 5c12 6fbf 08a9 14bf
00000370: 5a5c 00be 5658 17be d941 13bf 1c96 2ebf
00000380: 9b73 2dbf 3ec6 eabe 159f 39be 41d2 54bf
00000390: f3cf 49bf a7a5 00bf 1ded 90bd 99ff 9abe
000003a0: 1482 0fbf 6628 40be ce55 cbbe a60e 19bf
000003b0: abf4 75bf 0e0f 9abe 6f32 c0be 827b 8fbf
000003c0: 4013 3fbf 7d68 19bf fe91 84bf 645b 073e
000003d0: a59d 9cbf bec8 9f3d fe30 06bf c141 dfbd
000003e0: 9075 2abf 4a5c 33bd 1de2 52bf 94e8 34be
000003f0: 53c9 87bd a97a 91be fc22 16bf 4bde 27bf

gru.bias_hh_l0 f4 [768]
-0.6455549 -0.2534774 -0.26873556 -1.0201352 -0.5635376 -0.63651943 -1.1230693 -0.035360783
-0.96659833 -0.80292016 -0.5052264 -0.30804437 -0.7106711 -0.92999464 -0.35589305 -0.29976
-0.22516717 -0.551199 0.2734582 -1.0074731 0.2759451 -0.9497208 -0.63720345 -0.031104986
-0.4127366 -0.81110567 -0.97698146 -0.48720706 -0.2483343 -0.5230164 -0.56213605 -0.5986857
-0.9695616 -0.7329691 0.19417733 -0.4052473 -0.49865544 -0.25292596 -0.2198713 -0.8984463
-0.63001317 -0.13336855 -0.6607569 -0.41693124 -0.3692086 -0.64303523 -0.36019772 0.25480822
-0.42070228 -0.1701843 -0.26493374 -0.14287859 -0.51388013 -0.011416442 -0.34109455 -0.52067107
-0.13440038 -0.34997734 -0.28030738 -0.640232 -0.7259133 -0.8982086 0.07234414 -0.46827054
-0.88678265 -0.7797274 -0.2944959 -0.099013805 -0.8131164 -0.087584674 0.08823187 -0.49576685
-0.20321675 -0.64823794 -0.22460535 -0.6205179 0.26083356 -0.45275378 -0.8729773 -0.5592713
-0.5509183 -0.13215794 -1.001024 -0.604242 -0.61335635 -0.36548778 0.041148137 0.038462646
-0.46429706 -0.058618877 -1.1158278 0.044055846 -0.8070548 -0.8200605 0.12909912 -0.7120346
-0.5546675 -0.2169735 -0.29118222 -0.59638107 -0.45321766 -0.51127356 -0.6504579 -1.011104
-0.61007273 -0.38711616 -0.5892028 -0.21301048 -0.40734708 -1.0613335 0.012872522 -0.34581304
-0.94239444 -0.40272883 -0.6251585 -0.2779275 -0.39694312 -0.18488422 -0.13578907 -0.649227
-0.6222643 -0.505192 -0.1153634 -0.6331692 -0.3629604 -0.87506765 0.32848486 -0.1702297
-0.52977043 -0.61204386 -1.1828401 -1.1836365 -0.15804382 -0.532387 -0.9378508 -0.96460044
-0.9041969 -0.6049702 -0.6301984 -0.013522465 -0.26583487 -0.36971506 -0.3046356 -0.29523104
-0.24416101 -1.0753164 -0.78105676 -0.7920705 -0.20257579 -0.53164065 -0.64196926 -0.3091578
-0.61733484 -0.5615349 -0.77577746 -0.5433044 -0.41102844 -0.64355093 -0.4897082 -0.95357263
-0.89383453 -0.093181424 -0.21542916 -0.09476279 -0.36230168 0.15108638 -0.29334092 -0.17035304
-0.52173626 -0.31229454 -0.58600605 -0.58258533 -0.78479904 -0.058117792 -0.13708667 -0.35760677
-0.80978173 -0.053588778 0.061840124 -0.19742927 -0.23625925 -0.07389758 -0.46064168 -0.21266718
-1.0880021 -0.58786577 -0.6068645 -0.33017626 -0.550215 0.025265679 -1.3272818 -0.40024468
-0.98312455 -0.30249566 0.11821623 -0.29739854 -0.17689748 -0.63179916 -0.6627464 -0.34458637
-1.2702572 -0.7203837 -0.5466307 -0.74542254 -0.45023865 0.023801094 -0.8205771 -0.41279256
-0.80932754 -1.1626761 -0.6386612 -0.31170732 -0.5858033 -1.0344665 -0.23042765 -0.53129864
-0.2618438 -0.5491769 -0.986246 -0.5416176 -0.14472535 -0.15728258 -0.5404031 -0.73511165
-0.5693357 -0.44228587 -0.17337923 -0.7834969 -0.77156216 -0.399124 -0.08431028 -0.29639727
-0.56983864 -0.12413649 -0.35046896 -0.70964974 -0.91433877 -0.3271007 -0.40589082 -1.0484642
-0.7105656 -0.52895355 -1.0880082 0.18752623 -1.237159 0.062419567 -0.46088907 -0.1732571
-0.6363064 -0.14292336 -0.7741165 -0.15504888 -0.10133337 -0.28721973 -0.57241875 -0.7273079
00000000: 1643 25bf cac7 81be b597 89be ca93 82bf
00000010: 0044 10bf f0f2 22bf bcc0 8fbf 78d6 10bd
00000020: fd72 77bf 2d8c 4dbf 8456 01bf feb7 9dbe
00000030: 8bee 35bf 2114 6ebf 9d37 b6be 257a 99be
00000040: 3992 66be 611b 0dbf b702 8c3e e1f4 80bf
00000050: ad48 8d3e e720 73bf c41f 23bf e2cf febc
00000060: 3652 d3be 9fa4 4fbf 751b 7abf 3473 f9be
00000070: 594b 7ebe 67e4 05bf 26e8 0fbf 7743 19bf
00000080: 3035 78bf dda3 3bbf 6cd6 463e 937c cfbe
00000090: c44f ffbe 837f 81be f125 61be 9400 66bf
000000a0: 8b48 21bf c491 08be 5d27 29bf 0378 d5be
000000b0: e908 bdbe f59d 24bf d66b b8be 3976 823e
000000c0: 4a66 d7be cb44 2ebe 65a5 87be c44e 12be
000000d0: a68d 03bf 070c 3bbc f2a3 aebe b34a 05bf
000000e0: 41a0 09be 3b30 b3be 7384 8fbe 3fe6 23bf
000000f0: 74d5 39bf 00f1 65bf 2a29 943d 28c1 efbe
00000100: 3004 63bf 379c 47bf 2bc8 96be c0c7 cabd
00000110: 6528 50bf 985f b3bd e9b2 b43d 27d5 fdbe
00000120: 0d18 50be ecf2 25bf f2fe 65be 43da 1ebf
00000130: fa8b 853e 58cf e7be 717b 5fbf 672c 0fbf
00000140: fb08 0dbf 6954 07be 8e21 80bf 9baf 1abf
00000150: ec04 1dbf 3721 bbbe f38a 283d 028b 1d3d
00000160: 58b8 edbe 591a 70bd 72d3 8ebf e773 343d
00000170: 259b 4ebf 7cef 51bf 8f32 043e e647 36bf
00000180: b0fe 0dbf 4d2e 5ebe d615 95be 6eac 18bf
00000190: 250c e8be d3e2 02bf 6984 26bf db6b 81bf
000001a0: ba2d 1cbf 1734 c6be ffd5 16bf 6b1f 5abe
000001b0: cc8f d0be c7d9 87bf 45e7 523c 680e b1be
000001c0: c340 71bf 7932 cebe 630a 20bf 834c 8ebe
000001d0: 213c cbbe 4a52 3dbe 4a0c 0bbe be33 26bf
000001e0: b74c 1fbf 4354 01bf a543 ecbd 6017 22bf
000001f0: f2d5 b9be 6f04 60bf 2b2f a83e b250 2ebe
00000200: 099f 07bf e8ae 1cbf 4e67 97bf 6781 97bf
00000210: 3dd6 21be 844a 08bf fd16 70bf 0ef0 76bf
00000220: 7379 67bf 54df 1abf af54 21bf 548d 5dbc
00000230: 821b 88be 4b4b bdbe 33f9 9bbe 8628 97be
00000240: 5805 7abe f8a3 89bf 56f3 47bf 22c5 4abf
00000250: 0770 4fbe 9a19 08bf 1958 24bf ee49 9ebe
00000260: a809 1ebf c0c0 0fbf 5a99 46bf ff15 0bbf
00000270: 5272 d2be c1bf 24bf 08bb fabe 561d 74bf
00000280: 57d2 64bf e7d5 bebd 7699 5cbe fe12 c2bd
00000290: 9b7f b9be 63b6 1a3e c830 96be 0771 2ebe
000002a0: 8290 05bf 12e5 9fbe 7e04 16bf 5024 15bf
000002b0: 97e8 48bf ec0c 6ebd 7360 0cbe 3c18 b7be
000002c0: db4d 4fbf e87f 5bbd 124c 7d3d e62a 4abe
000002d0: f2ed 71be 9d57 97bd 3ad9 ebbe 6dc5 59be
000002e0: a743 8bbf 5f7e 16bf 795b 1bbf dd0c a9be
000002f0: e4da 0cbf f8f9 ce3c 5fe4 a9bf dfec ccbe
00000300: 0dae 7bbf b6e0 9abe 5a1b f23d 9f44 98be
00000310: 9d24 35be 97bd 21bf c0a9 29bf a06d b0be
00000320: ca97 a2bf 116b 38bf fdef 0bbf 03d4 3ebf
00000330: ae85 e6be 83fa c23c 5711 52bf 8c59 d3be
00000340: 1730 4fbf 92d2 94bf 4d7f 23bf 1a98 9fbe
00000350: 34f7 15bf 6669 84bf 3af5 6bbe 3003 08bf
00000360: 6410 86be db96 0cbf 9e7a 7cbf 73a7 0abf
00000370: e232 14be af0e 21be dc57 0abf 4730 3cbf
00000380: fcbf 11bf 4b73 e2be 538a 31be 4193 48bf
00000390: 1985 45bf fb59 ccbe deaa acbd 62c1 97be
000003a0: f2e0 11bf 463b febd ab70 b3be 9bab 35bf
000003b0: 1b12 6abf be79 a7be ecd0 cfbe 1334 86bf
000003c0: a1e7 35bf 8069 07bf da43 8bbf e006 403e
000003d0: 3a5b 9ebf a9ab 7f3d a7f9 ebbe 4f6a 31be
000003e0: fae4 22bf 805a 12be 802c 46bf 22c5 1ebe
000003f0: df87 cfbd 770e 93be 098a 12bf da30 3abf

fc.weight f4 [16, 256]
-0.05978261 -0.01711533 -0.08372536 0.22720209 -0.63117653 -0.14747375 0.45383328 -0.38357583
0.4479387 -0.27458355 -0.01609002 0.046072226 -0.5379431 -0.06329975 -0.043430697 0.2051072
0.025735999 0.36465508 -0.14872107 0.42448628 -0.2097596 0.29399544 -0.12157816 0.16293173
0.3517685 -0.8480448 0.67822754 -0.13226692 -0.32813245 -0.24706163 -0.97073954 -0.09283627
-0.98442054 -0.15923417 -0.33730707 0.45037746 -0.024124485 0.22923757 -0.2690999 -0.025285905
0.09865197 -0.09557574 -1.1069663 -1.4177302 0.18486309 -0.600896 0.39833134 0.27040115
-0.26344514 0.011960617 -0.17007774 0.18992238 0.36713153 -0.9901941 0.54301935 -0.09757143
0.041228417 -0.27705252 0.5023849 -0.2744143 0.20063582 0.7892792 -0.13492092 0.012033697
-0.11728697 0.025900682 -0.11829049 0.00031187048 -0.23235685 -0.21832532 -0.2514885 -0.53678536
-0.015275503 0.15253682 0.31817788 -0.111755714 0.12010472 -0.4182342 -0.13441782 -0.22921155
-0.24205919 0.37454504 -0.012795025 -0.33207652 -0.0031164796 -0.16992098 0.17074674 -0.234005
0.2219523 0.31111404 0.04286308 -0.4606064 -0.47632897 -0.04128348 0.22346643 0.36791593
-0.24371263 0.08724062 -0.34275883 -0.5518529 -0.22142296 0.334883 0.09047803 -0.44691598
-0.29418147 -0.10170581 0.7761545 0.6166767 0.29047614 0.16484673 0.47669256 -0.006832308
0.5462969 0.25633693 0.8090788 0.10880375 0.4355974 0.13768247 -0.57871026 0.15245631
-0.50855434 -0.19960445 -0.012978862 -0.2639427 0.14142317 0.109876625 -0.35248956 -0.1635766
0.02473944 0.023594348 -0.02318222 -0.69048065 0.36519712 0.08392298 -0.15507716 0.37719488
-0.37494287 -0.14596877 -0.30245146 -0.035491575 -0.24928622 -0.2961758 0.5281018 0.20455362
0.5008596 0.40239066 -0.1600263 0.6949097 -0.10802415 0.44172817 -0.12808931 -0.38751557
-0.041835126 0.10920582 -0.43128774 0.32190356 0.2006439 -0.0743741 -0.11311156 0.2965412
0.080934085 0.68486506 0.020757526 0.1770371 0.009424622 0.038034577 0.37091926 -0.1579461
0.2788331 0.07657137 0.23827083 0.23932832 0.008327969 -0.5189093 0.046615127 -0.59969
-0.19309534 -0.05365526 -0.2882164 0.09852117 -0.08090352 0.10323935 0.44989467 0.29595375
-0.31161264 0.092620134 -0.056768455 -0.09825914 -0.4046168 -0.15770075 0.31253597 -0.6344104
0.8753901 0.12288116 -0.01966858 -0.030796796 0.0698123 -0.19268404 -0.40596747 0.26509267
-0.58752537 -0.23177995 0.23932344 -0.47920752 -1.0350797 0.2296499 -0.020688854 -0.47978905
0.23459318 -0.19204777 -0.12861533 -0.11171209 -0.11002828 -0.14255393 -0.18824695 -0.18264017
-0.3506519 0.18371423 0.724648 -0.39836448 -0.84730136 -0.0143869035 -0.51729083 -0.18495087
-0.13127387 -0.12516718 0.12558739 -0.18760625 0.027910462 0.009531962 0.11087628 -0.10864581
-0.22136705 -0.23457693 0.42892048 -0.03274674 -0.09052359 0.0306065 0.2323898 0.10495049
0.05434622 0.043469477 0.4096815 -0.37828934 -0.03745579 0.14700441 0.16581719 0.3421748
-0.060127936 -0.117925495 -0.1376657 -0.22403605 -0.35344476 -0.35536316 0.2911838 0.01922592
00000000: 9cde 74bd 7335 8cbc 3478 abbd aaa7 683e
00000010: c994 21bf 5c03 17be d65c e83e 0d64 c4be
00000020: 3958 e53e 3796 8cbe 38cf 83bc 3bb6 3c3d
00000030: a4b6 09bf 4da3 81bd 63e4 31bd 9f07 523e
00000040: 4dd4 d23c 12b4 ba3e 564a 18be 4456 d93e
00000050: 38cb 56be 9286 963e f8fd f8bd 93d7 263e
00000060: 001b b43e 7719 59bf 52a0 2d3f fb70 07be
00000070: fa00 a8be b9fd 7cbe 6382 78bf f120 bebd
00000080: fc02 7cbf 480e 23be 83b3 acbe e097 e63e
00000090: b6a0 c5bc 41bd 6a3e 76c7 89be 6324 cfbc
000000a0: 0b0a ca3d 37bd c3bd 12b1 8dbf 2f78 b5bf
000000b0: c04c 3d3e 52d4 19bf 16f2 cb3e 0572 8a3e
000000c0: 48e2 86be 77f6 433c dc28 2ebe 037b 423e
000000d0: aaf8 bb3e 5c7d 7dbf 5103 0b3f 88d3 c7bd
000000e0: 21df 283d d4d9 8dbe 4c9c 003f 0880 8cbe
000000f0: 7a73 4d3e 340e 4a3f b628 0abe fc28 453c
00000100: 2734 f0bd ab2d d43c 4942 f2bd 8c82 a339
00000110: f4ee 6dbe ac90 5fbe 1ac3 80be c46a 09bf
00000120: 1a46 7abc 9d32 1c3e 36e8 a23e 2ee0 e4bd
00000130: 77f9 f53d cb22 d6be d3a4 09be 6fb6 6abe
00000140: 5dde 77be 5ec4 bf3e 39a2 51bc ef05 aabe
00000150: da3d 4cbb c4ff 2dbe 3cd8 2e3e 029f 6fbe
00000160: 7747 633e 574a 9f3e 3291 2f3d 9ad4 ebbe
00000170: 64e1 f3be de18 29bd 62d4 643e 7a5f bc3e
00000180: ce8f 79be 36ab b23d 167e afbe 3b46 0dbf
00000190: b3bc 62be c975 ab3e 8c4c b93d 2cd2 e4be
000001a0: f49e 96be 234b d0bd 10b2 463f 86de 1d3f
000001b0: 4ab9 943e 95cd 283e 0c11 f43e 8ee1 dfbb
000001c0: 1dda 0b3f 983e 833e ca1f 4f3f 80d4 de3d
000001d0: 9f06 df3e a2fc 0c3e 5b26 14bf 821d 1c3e
000001e0: 9e30 02bf 1c65 4cbe 4ba5 54bc 7f23 87be
000001f0: 3cd1 103e ff06 e13d 8379 b4be a080 27be
00000200: 5eaa ca3c ef48 c13c a4e8 bdbc 57c3 30bf
00000210: 1efb ba3e d0df ab3d 8ccc 1ebe b01f c13e
00000220: 83f8 bfbe d678 15be ebda 9abe 9d5f 11bd
00000230: e344 7fbe 5ba4 97be ae31 073f 8176 513e
00000240: 5638 003f 2606 ce3e efdd 23be 9ae5 313f
00000250: c43b ddbd 322a e23e d829 03be 7168 c6be
00000260: 4f5b 2bbd 4da7 df3d bfd1 dcbe 8bd0 a43e
00000270: 9875 4d3e 7351 98bd 09a7 e7bd 40d4 973e
00000280: c5c0 a53d 5153 2f3f b00b aa3c 3749 353e
00000290: bb69 1a3c 25ca 1b3d 21e9 bd3e 9fbc 21be
000002a0: 36c3 8e3e 73d1 9c3d 45fd 733e 7c12 753e
000002b0: 0972 083c 3dd7 04bf 81ef 3e3d 4985 19bf
000002c0: c9ba 45be 9ec5 5bbd 1a91 93be 78c5 c93d
000002d0: bfb0 a5bd 276f d33d 9858 e63e 4087 973e
000002e0: b18b 9fbe a0af bd3d 0a86 68bd 173c c9bd
000002f0: ef29 cfbe 4e7c 21be b704 a03e b868 22bf
00000300: 9119 603f 1ea9 fb3d 0020 a1bc 9049 fcbc
00000310: c0f9 8e3d f74e 45be f8da cfbe 3aba 873e
00000320: 1068 16bf b957 6dbe 3411 753e b05a f5be
00000330: 7e7d 84bf 5829 6b3e ac7b a9bc e9a6 f5be
00000340: 3239 703e 2ca8 44be bdb3 03be 4fc9 e4bd
00000350: 8256 e1bd a8f9 11be cfc3 40be 0606 3bbe
00000360: a588 b3be 951f 3c3e 8882 393f 6ef6 cbbe
00000370: bee8 58bf 0cb7 6bbc 2c6d 04bf c363 3dbe
00000380: a86c 06be d32b 00be fb99 003e da1b 40be
00000390: 7ba4 e43c f22b 1c3c 1a13 e33d b281 debd
000003a0: 0bae 62be ef34 70be 779b db3e 7221 06bd
000003b0: 6f64 b9bd 7cba fa3c 97f7 6d3e 48f0 d63d
000003c0: 249a 5e3d 0d0d 323d c6c1 d13e 24af c1be
000003d0: 3e6b 19bd 5388 163e fbcb 293e 8931 af3e
000003e0: b648 76bd ec82 f1bd 3df8 0cbe b569 65be
000003f0: b6f6 b4be 29f2 b5be 0b16 953e ad7f 9d3c

fc.bias f4 [16]
-17.536028 -17.538452 17.019775 17.022966 -1.6411091 -0.25843924 -0.47945628 0.18902427
-17.533895 -17.536858 17.02397 17.023989 -1.7310685 -0.6578502 -0.8702492 -0.3413164
00000000: c949 8cc1 c04e 8cc1 8028 8841 092f 8841
00000010: dd0f d2bf 2652 84be 4b7b f5be 948f 413e
00000020: 6b45 8cc1 7c4b 8cc1 1731 8841 2131 8841
00000030: a793 ddbf df68 28bf a7c8 5ebf 06c1 aebe
