AI-Visual/GRUTRAINING/gru_ASCIIIII_gpu_test2.pt (torch, 817896 bytes, 6 tensors)

gru.weight_ih_l0 f4 [768, 2]
00000000: 7633 3a3f a75d 13c0 6416 1440 26e7 fabf
00000010: 7179 4cbf 2e05 f0bf f710 34bf 3c55 a7bf
00000020: c7d9 7840 a8dc 0f40 258e 0cbf e9c0 c73f
00000030: 7037 4f3f 1933 923f 2857 a1c0 d71e b6c0
00000040: 851e c740 a486 8c40 8a4b 3bbf 95d6 6e40
00000050: 1cef d23f 798f bc3f 9e11 d73e c6d5 ddbe
00000060: 5cfd 8ebf ef65 b4bf 740d 223e 6ad5 0340
00000070: a804 873f 92f6 b33f 45f4 7bbf 567f 85ba
00000080: d701 5740 4785 973e 2949 b13e f138 a23c
00000090: f10c 4b40 28b7 d53f dd25 78bf bdd3 773f
000000a0: e81a 6240 1a8c 7d3e 7e42 fdbf 8de8 273e
000000b0: 92a4 f43f e758 1340 ce60 183e 2404 713f
000000c0: adf9 5b40 08c7 3c40 4a64 d2be 8a24 9a3f
000000d0: 586a 963f b68c 3040 fbb3 5dbf 80c0 163f
000000e0: edb1 6740 c0bd 1fc0 c677 94c0 7239 4cc0
000000f0: 51f0 7b3f 2f21 a3be b6c2 1fc0 9f50 efbf
00000100: ed83 f93f 251b 6140 c423 8bbf a2fe d53f
00000110: 7129 04c0 f615 b63f a9ed 9f3f 718c 3b40
00000120: 647f b2be c99a 67c0 e30b 333f 981b bc3e
00000130: c71e 3f40 a22a fe3e 0c2e 7340 ee7b 2240
00000140: 7268 e53f de03 cf3f 1ac5 8440 3e51 5640
00000150: e411 9640 8db8 8140 7ec0 793f 66c6 1f40
00000160: 7002 ec3f dbd6 643e a4cc 04c1 377b 99bf
00000170: 8e5f 343f 63c8 42c0 c549 4340 6728 2940
00000180: ed8d 9740 735c 9640 f79e 7d3e 8511 e8bf
00000190: 9575 35c0 5018 84c0 3a7e d8bf acd3 4dc0
000001a0: c62d fe3f d753 7cbb d2ba 4b40 b647 61bf
000001b0: cb8e 6c3f 6be4 0140 7903 adbe 3f17 063f
000001c0: 3cb3 0ac0 fb43 3fbf bffe 823f 8d5e 4140
000001d0: 5ac8 7040 03a1 7040 9e63 8a3f 9a1a 793f
000001e0: 86f0 8f40 bc79 4840 ba0b 4840 bdfe 4c40
000001f0: 393c 0c40 cb03 873f 93d7 87c0 f0fa 4c40
00000200: 8617 8440 6241 4240 711a 0b40 ee37 4e40
00000210: dab4 aa3e bd07 0340 da63 d13e 8274 f83f
00000220: db51 1b3e 17c3 81bf a276 b93e 3a79 3ebf
00000230: f715 4a40 b04d 4340 22fa 38be b790 adbd
00000240: 8c00 e83e a4c4 1a3e 0265 6840 9b76 0b40
00000250: bf17 893e c30e 3340 30dc bf40 fb8e f740
00000260: b420 0a40 9d26 66be f24e b03f 781a 7dc0
00000270: f918 5640 3668 aa3f 240a 03bf 8183 76be
00000280: b294 0b40 f191 4d3f 1d5d 6f40 2506 0140
00000290: 3f2c 0440 8a55 a640 2d2a f7bf 2ef6 d53f
000002a0: 41e8 ce3f 229a 4940 6db0 bcbf 18f4 0e3f
000002b0: 323b 18c0 bc95 adbf bacb ecbf f5c1 7f40
000002c0: 4a6b 1840 cfb9 6d3f 3172 5840 6f3b 86be
000002d0: 1877 f13f 73d7 0640 d2f0 1a3f 05d6 3dbd
000002e0: 7088 823f b8ce ca3e 8733 c73e 08a3 013f
000002f0: 3d0e 9abe 2ed8 5040 63ef 5ebf e812 ddbf
00000300: ef69 5140 9a12 e33f 773b d5bf d823 16c0
00000310: 115f eb3f 4d74 4b40 bd06 41c0 2a69 d7bf
00000320: afe6 d3bf 91c7 a9bf de03 7c3f 4a12 0540
00000330: 8267 23bf ec20 4cbf a738 3dbf b2d8 97bf
00000340: 9b5e 0640 9fc7 62c0 e164 edbf a170 f4bf
00000350: 5e97 a23d c953 49bf 609e 3440 6829 963f
00000360: 2b5e 42c0 c803 eabf 142e 29bd 23bb b63f
00000370: 6cf9 7440 4a10 9f40 c24d 5abf cfba f0bf
00000380: 1f89 5a40 c040 4d40 625b 2c3f 4c5c 0140
00000390: 72bb 6840 4843 e33e 2aeb 2640 c48d 66c0
000003a0: c234 96bf 2acf 8ebf e8b7 a9bf 88e1 ccbe
000003b0: af72 babf f726 f3bf bea5 8b40 6716 8040
000003c0: 74c1 4540 8b87 9fbd 74fa 1840 017b 1d40
000003d0: 0510 1dc0 a1e2 ab3f 9883 6140 d204 a1c0
000003e0: 1131 6040 9956 8440 0546 f13d 2969 9f3e
000003f0: b69d 963f df56 efbf 4f22 9ebf 9ad6 34bf
0.72734773 -2.302591 2.3138666 -1.9601791 -0.79872805 -1.8751581 -0.70338386 -1.3072886
3.888292 2.2478428 -0.54904395 1.5605747 0.80943966 1.1421844 -5.041889 -5.6912646
6.2224755 4.3914356 -0.7316214 3.731847 1.647922 1.4731284 0.42005628 -0.4332716
-1.1171069 -1.4093608 0.15825444 2.0599008 1.0548296 1.4059622 -0.984196 -0.0010185044
3.3594873 0.2959387 0.3462613 0.019802542 3.1726649 1.669652 -0.96932775 0.9680746
3.5328922 0.24760476 -1.9785917 0.16397305 1.9112723 2.3023012 0.14880678 0.94146943
3.437114 2.949648 -0.4109214 1.2042401 1.1751204 2.7585883 -0.86602753 0.5888748
3.6202347 -2.4959564 -4.639621 -3.1910062 0.9841357 -0.31861255 -2.4962592 -1.8696479
1.9493386 3.5172818 -1.087029 1.6718333 -2.0650294 1.4225452 1.2494403 2.9304469
-0.34862816 -3.6188223 0.6994001 0.36739802 2.9862535 0.496419 3.7996855 2.538814
1.7922499 1.6173055 4.1490602 3.3487086 4.689684 4.053778 0.97559345 2.4964843
1.8438244 0.22347586 -8.299961 -1.1990727 0.70458305 -3.0434806 3.0513775 2.643091
4.736075 4.6987853 0.24767672 -1.8130347 -2.8353016 -4.127968 -1.6913521 -3.2160444
1.9857719 -0.003850212 3.1832776 -0.8800005 0.92405385 2.0295665 -0.33791712 0.5237922
-2.1671896 -0.74713105 1.0233992 3.021396 3.7622285 3.7598274 1.0811651 0.97306216
4.498111 3.13243 3.1257157 3.203048 2.1911757 1.0548033 -4.245065 3.202816
4.1278715 3.0352407 2.1734889 3.2221637 0.33341104 2.0473473 0.40896493 1.9410555
0.15167944 -1.0137662 0.36223322 -0.7440373 3.1575906 3.0516167 -0.18064168 -0.08474868
0.45312917 0.15114075 3.631165 2.179114 0.2677593 2.797776 5.9956284 7.7362037
2.158246 -0.22475667 1.3774092 -3.9547405 3.3452742 1.3313053 -0.5118735 -0.24073602
2.1809506 0.80300814 3.7400582 2.016 2.0652006 5.197942 -1.9309746 1.6715753
1.6164628 3.1500325 -1.4741341 0.5584121 -2.378613 -1.356132 -1.8499672 3.9962132
2.3815484 0.92861646 3.3819697 -0.2621722 1.886447 2.1069 0.6052371 -0.046346683
1.0197887 0.3961084 0.389065 0.5063939 -0.30088988 3.2631946 -0.87084025 -1.7271395
3.2720907 1.7740052 -1.6658772 -2.3459377 1.8388387 3.1789734 -3.0160363 -1.6828969
-1.6554774 -1.3264028 0.984434 2.0792413 -0.63829815 -0.79737735 -0.7391457 -1.1863005
2.0995243 -3.543434 -1.8546411 -1.9096872 0.07939027 -0.7864347 2.8221664 1.1731386
-3.0369976 -1.8282404 -0.04130371 1.427586 3.8277235 4.9707384 -0.852749 -1.880701
3.4146192 3.207077 0.6732694 2.0212584 3.6364408 0.4438727 2.6081033 -3.6024027
-1.173485 -1.1156971 -1.3259249 -0.40015817 -1.4566249 -1.8996266 4.363982 4.0027347
3.0899324 -0.07789525 2.3902864 2.4606326 -2.4541028 1.3428537 3.5236568 -5.0318384
3.5029948 4.135571 0.11780933 0.31134918 1.176688 -1.8698386 -1.235422 -0.70639956

gru.weight_hh_l0 f4 [768, 256]
00000000: a84e 8c3f b27f 083f 1fa1 45be d62d 25bf
00000010: 4e77 1c3f 45d1 a9be 6517 533e 22ba 853f
00000020: 91fb 963e 9bad 323f 8428 75bf 0f49 423e
00000030: 1db3 35be 9aca d5be bec9 3e3f f790 9cbd
00000040: 59f9 8d3f 48ee f1bd d377 40bc 0ab9 7d3d
00000050: 7488 dfbe 4044 2cbf 4634 503f 9805 2bbe
00000060: 91f8 35bf 553e aebf c277 02bf fc1e 7dbf
00000070: 8a83 28be 889d 4c3f 069f cf3e 1f7a 5dbf
00000080: ab84 35bf b650 a13d 8d11 783f 03a5 c83e
00000090: cb9b 113e 6e3d 443f 7ab1 653f 7890 15bf
000000a0: 9bee 0abf e8eb bdbe 3a04 853f 4adc 7c3f
000000b0: db60 1dbe 2848 cf3e ce40 713f 99de 773f
000000c0: 61a4 27bd 7b4f fabd 859e 34bc 1e4b 2e3f
000000d0: 3dab 6abe cbbd 99be b7c9 93be 2035 f1be
000000e0: 45cb 9f3e d010 6bbe ecfc 14be 195a 8dbe
000000f0: 6ae9 27be 1c97 b83e 024c 82be 181b 323e
00000100: 5fbd 98be af40 0fbf 3c51 e03c a237 12be
00000110: 9197 01bf 4ddc 07be 342e 49be 96c5 853f
00000120: 4a3c 27bf 0602 493e ac41 2a3e dfa4 21bf
00000130: 763a 4dbf 4da4 43be 172f d6bf d59d 0cbf
00000140: 4f04 923f 2028 313f aaac 6d3f 5ff0 76be
00000150: de52 87bf 41be 93be 4f6a 68bf 7d42 d83c
00000160: f450 7c3e 6915 613f ae5b a43f 3977 243f
00000170: f7c3 4b3f 1440 4d3f 0c7c c73e c06c 34be
00000180: afe5 b33e 58a7 57bf fc6b ca3f 8684 f6be
00000190: f9d6 243e 14f1 acbf 413c 61bc 2890 a23d
000001a0: 5c4e 28bf 0f93 263f 59be 433f fa97 f6be
000001b0: 332f 95bf b767 71be 6df4 533f aa8b eabe
000001c0: c61a babf 504b 1f3f f7d6 e13d ba2c 24be
000001d0: e2a3 0cbf 54c3 ddbe c2e6 eabb 4620 ab3f
000001e0: 8449 c2be 7693 503d 12ab d83e f37e 5ebe
000001f0: 24a9 263f 2d8b a3be ea13 59bf 960f 2f3f
00000200: 6a5b 10bf f410 133e f816 223f 4e46 fb3e
00000210: ba37 d4be 5529 173f c642 1f3f 73ff 59be
00000220: 28e6 043e 06c2 29bd d99c efbe 690c 89bf
00000230: aa8d 283f 6737 5abe 66fb d3be df40 e53e
00000240: 2f8e 603f 5e85 383f 9adc a4bf 2ef3 693f
00000250: d068 333e 94d6 e8be dcad d63e a90a 21bf
00000260: 29be 5abd 5719 663f b9ed b83d b2e0 1a3e
00000270: f02a 6cbe 6b24 0e3e a25c 58be 0566 d5be
00000280: 37ef 053f 15ed 27bf 966b 3bbf 0a7b 26bf
00000290: 27c8 7e3f c2f2 0e3f 074b d73f 9edd 0a3e
000002a0: e1bd 323d e7e0 0a3f 4361 813f 3289 5bbf
000002b0: ec17 b53e 8e6b 9b3f 78a7 9d3f 3376 bebd
000002c0: ced8 9c3f 7539 923e 3996 133f d5e2 023f
000002d0: ee18 26bc 80f7 b13f ea31 4bbf da8b b13e
000002e0: 41a0 04be 0f73 0c3f f9f9 b03f f53f 133f
000002f0: 5378 423f e299 ad3e 4ee5 a43f 13fe db3e
00000300: 8973 30be ca52 c8be 1001 313f d546 da3e
00000310: 4dc0 27bf 1e9c 19be b0a0 9bbe 9830 c1be
00000320: 21b9 d63e 5fb7 81bf d377 a73f d447 f9be
00000330: b02e 80bf d37c e0bd 5252 f33f 81fa 3d3e
00000340: 5f4f 63bf 3a93 463f d00d a8bf 1188 bebe
00000350: 1685 353d a856 45bf 4afa b7be 60c7 893f
00000360: 3efb 98bd 227a aabe 9201 bdbf dc87 0b3e
00000370: 13b4 b93e 48c0 59bf 6069 5bbe 7790 6d3d
00000380: 072c c1be 8d8e b6bd 008a abbf db88 aa3e
00000390: 9726 34be eadb a6be bd2f 7d3f 103f a4bf
000003a0: b767 203f fc0a 2dbf f49c 49bf a6e7 b7bc
000003b0: 60b4 88bd bdfc 0ebf 797a 0b3f 6a6a 783f
000003c0: a8d0 343e f2bc 2a3f 0c38 68be 2e8d eb3d
000003d0: e5b6 3bbf b7b1 2e3f e33d a93e 1921 423f
000003e0: 0342 a3be 2a46 fb3e 8661 af3f a710 2fbe
000003f0: 4555 a9bd e8ef 343f aeea 74bf 5520 d83e
1.0961504 0.5331985 -0.19299744 -0.64523065 0.61119545 -0.33167472 0.20614393 1.0447428
0.29488805 0.6979615 -0.95764947 0.18973182 -0.17744108 -0.41756135 0.74526584 -0.07644837
1.109172 -0.11813027 -0.011747318 0.061944045 -0.43658793 -0.6729164 0.8132976 -0.16701353
-0.7108241 -1.3612772 -0.50963986 -0.98875403 -0.16456428 0.79927874 0.40551013 -0.86514467
-0.7090556 0.078767225 0.9690178 0.39188394 0.14219587 0.76656234 0.8972393 -0.58423567
-0.54270333 -0.37094045 1.0391915 0.98773634 -0.15368979 0.40484738 0.9423951 0.9682403
-0.04092825 -0.12222191 -0.011024122 0.6808337 -0.22916885 -0.30027613 -0.28864834 -0.47110844
0.3120977 -0.22955632 -0.14549607 -0.27607802 -0.16397634 0.36052787 -0.25448614 0.17393148
-0.2983198 -0.55958074 0.027382486 -0.14279035 -0.50621897 -0.13267632 -0.19646531 1.0450923
-0.6532637 0.19629678 0.16626614 -0.631422 -0.8016733 -0.19105645 -1.6733121 -0.5492833
1.1407565 0.6920185 0.9284159 -0.24115132 -1.0572164 -0.2885609 -0.90787214 0.026398892
0.24640256 0.87923294 1.2840478 0.6424442 0.79595894 0.801759 0.38961828 -0.1761961
0.35136172 -0.8423972 1.5814204 -0.48147982 0.1609763 -1.3511071 -0.013747276 0.07937652
-0.65744567 0.65068144 0.7646232 -0.48162824 -1.1655029 -0.2357472 0.8279484 -0.4580968
-1.4539421 0.6222429 0.110273294 -0.16032687 -0.54937565 -0.43313086 -0.0071686218 1.3369224
-0.37946713 0.05092188 0.42318016 -0.21728115 0.6510184 -0.3194212 -0.8479601 0.6838316
-0.56389487 0.14361936 0.633163 0.49077076 -0.41448766 0.5904744 0.62211263 -0.21288852
0.12978423 -0.0414448 -0.46799353 -1.0706912 0.6584116 -0.21310197 -0.4140274 0.44776055
0.87716955 0.720785 -1.2879822 0.9138669 0.17520452 -0.4547621 0.4192952 -0.6290689
-0.053404007 0.89882416 0.09029717 0.15124777 -0.23063254 0.1388108 -0.21129087 -0.41679397
0.5231814 -0.65596133 -0.7321104 -0.6503149 0.9952416 0.5583917 1.6819772 0.13561103
0.043638114 0.54249424 1.0107807 -0.8575622 0.35369813 1.2142198 1.2316732 -0.092998885
1.2253664 0.2855946 0.57651097 0.5112737 -0.01013778 1.3903656 -0.7937304 0.3467701
-0.12951757 0.54863065 1.3826286 0.57519466 0.7596485 0.33906466 1.2882478 0.4296728
-0.17231573 -0.39125663 0.69142246 0.42632166 -0.655278 -0.1500096 -0.30396032 -0.37732387
0.41938117 -1.0134085 1.3083442 -0.48687613 -1.0014248 -0.10961308 1.9009497 0.18552591
-0.88792986 0.775684 -1.3129215 -0.37213185 0.044316374 -0.7708535 -0.35933143 1.076397
-0.07469796 -0.33296305 -1.4766104 0.13626045 0.36270198 -0.8505902 -0.21426916 0.0579991
-0.37728903 -0.08913908 -1.3401489 0.33307537 -0.17592846 -0.32589656 0.9890097 -1.2831745
0.62658256 -0.67594886 -0.78755116 -0.022449326 -0.06675029 -0.558544 0.54483753 0.97037375
0.17657721 0.6669456 -0.2267763 0.11501537 -0.7332595 0.6823992 0.33055028 0.75831753
-0.318863 0.49076968 1.3701637 -0.17096196 -0.08268217 0.7067857 -0.9567059 0.42212167

gru.bias_ih_l0 f4 [768]
00000000: c3ef 683e 0da7 1ebf eca6 10bf d673 d2be
00000010: b0a1 cebf b153 77bf 8b0c 3dbf 3417 03c0
00000020: e25e 88bf 1313 43bf 9677 82bf f2d3 46bf
00000030: ec71 36be 8432 d3be 10ae 60bf 9b8c 16bf
00000040: d646 a3bf ae69 75bf d923 5bbf 97f6 56bf
00000050: 392a b3bf 084e 12bf f716 4bbf 2d22 5fbf
00000060: 66df 88bf 101f 0abf 917f 61bf 1df3 5dbf
00000070: 8a82 02c0 106d 5abf 0309 81bf 2862 c9bd
00000080: b5c3 a0bf 5513 7ebf 23ba 7cbe ac3f aebf
00000090: d81e 02be 5e02 18bf c175 73bf 1443 cdbf
000000a0: 6e1e 87bf a5a6 30bf 621e adbf fcbf 5dbf
000000b0: 4e45 6dbf 6105 09c0 9069 f1be 95b1 95bf
000000c0: 34ff abbf 2dc4 5cbf aaad ccbf 8e9f b5bd
000000d0: 4e76 71bf b057 43bf 0ca2 87bf 8de0 2ebf
000000e0: 9e65 33bf 9221 92bf 5237 2cbf 850e 7cbf
000000f0: 69d4 5cbf 7019 87bf dad0 2bbf c521 31c0
00000100: 2ee6 b3bf 9d5a 5bbf 6a7b 31bf 7fa0 7abf
00000110: 4ac0 30bf 3673 63bf 1e40 b8bf 1de5 88bf
00000120: 8b76 6dbf 2bd8 c2bf 48d5 48bf 41d3 82bf
00000130: caf7 69bf 238a e8bf 096c 0f3e 403d 75bf
00000140: 9cf8 81bf be0f 80bf 3969 96bf a4ed f2be
00000150: c619 90bf 167b e5be 0e75 a5bf c8ec 53bf
00000160: 02c3 4ebf 710e 42bf 151d e6be 9820 0bbf
00000170: 4027 2abf db4e 68bf 3bfe 36bf c4ac adbc
00000180: 0bda 74bf 73ce f0be 598d b0bf 5b49 aabd
00000190: 19d5 49be cd1e 24bf d22f 88be 924b 30bf
000001a0: 4079 89bf a391 e33c 62e0 2fbf 1a7c 98bf
000001b0: 472f ee3d 4c4c f4be af0c a5bf 34a0 2ebf
000001c0: 1dc2 a5bf 2146 7ebf 2c13 9fbf efdd 8bbf
000001d0: 2eeb 1fbf f1ed 61bf 5e81 8dbd 6a47 83bf
000001e0: 138b 94bf 7868 8fbf 5e3e 22bf 5304 24c0
000001f0: 3f00 dabf 0eba 30bf ef8f 06bf e237 f7be
00000200: 99f6 c5bf 933a adbf 0a10 dbbe e82c a4bf
00000210: 7cdf 5ebf f0f5 2dbf 30a0 7dbf ed21 50bf
00000220: 8984 4fbf bf72 f9bf b196 46bf 7544 9bbf
00000230: 2f3f 9cbf 16f3 afbf da3d 23bf 3471 1cbf
00000240: 5729 5bbf 452b 8abf 4935 abbf 3161 3cbf
00000250: 6dfe 93bf 3fe5 a7bf f679 9abf cef6 50bf
00000260: 040b 1cbf d4f8 9cbf c870 52bf 8458 453d
00000270: c420 07bf b2e4 edbe 0b4a a7bf 79b6 4ec0
00000280: 719b 9dbf 2155 1ebf b6f5 7bbf 6c7b e4be
00000290: e7f5 08bf e89a b3bd 725c 27bf 2704 73be
000002a0: c866 a0bc b8b2 74bf 9a41 88bf e1c2 61bf
000002b0: dc32 62bf 1df3 cebf ad55 0ebe cea6 b3bf
000002c0: a367 4bbf f005 27bf 7f73 f4be da5f e3be
000002d0: 01b9 35bf e67c f7bf bbae 83bf e3d9 91be
000002e0: c9f3 52be 60a9 53bf eb8c 74be 12c4 a4be
000002f0: 4c3c 3cbf f6e3 4ebf d4ec 73bf d188 acbf
00000300: c7ab babe 6ee5 7cbf 5bf0 a2bf f276 85bf
00000310: 35fb aabf 0717 adbe ad26 13bd 978a 8dbd
00000320: c07a 68bf 9e98 26c0 55a3 6abe b7f4 56bf
00000330: 56a3 b2bf deb7 c3bf fb7d 12c0 6c00 d1bf
00000340: 8446 8dbf 52d8 b8be 3827 08bf 0efc 59bf
00000350: 2413 00c0 d977 61bf f941 14bf 9ac2 14bf
00000360: e78b 71bf baa2 5a3e 0963 053e 670d 80bf
00000370: e7dd 77bf 7711 aabe 3934 b2bf c25d 3cbf
00000380: 7848 a0be a3c3 8cbf 216d aabf 1e78 12bf
00000390: 584d 91bf cb4d 78be dcd1 0abf 074f c1bf
000003a0: 30e2 12bf f75e d2bf 0a44 c3bf e666 4ebf
000003b0: a4df 56bf 53fc 72bf d75c 16bf c07d 96bf
000003c0: adb2 84bf 48e7 13bf f991 5ebf 0e86 5cbf
000003d0: 6797 45bf f17d 9fbf 9194 b1bf cc2d 24bf
000003e0: 31a2 3abf 4a43 3fbf af55 97bf 4d18 48bf
000003f0: 9866 92bf 2079 78bf 75a1 48bf d6ee 17bf
0.22747712 -0.6197365 -0.565047 -0.41104 -1.6143093 -0.9661208 -0.73847264 -2.0482912
-1.0653956 -0.7620098 -1.0192745 -0.7766715 -0.17816895 -0.41249478 -0.877656 -0.58808297
-1.2755992 -0.9586438 -0.85601574 -0.83970016 -1.399726 -0.57150316 -0.79331917 -0.87161523
-1.0693176 -0.5395365 -0.88085276 -0.86699086 -2.0392175 -0.85322666 -1.0080875 -0.09833175
-1.2559725 -0.9924825 -0.2468038 -1.3613181 -0.12707078 -0.5937861 -0.95101553 -1.6036096
-1.0556161 -0.6900428 -1.3524897 -0.8662107 -0.92683876 -2.1409533 -0.4715085 -1.1694819
-1.3437257 -0.8623684 -1.5990498 -0.08868323 -0.94321144 -0.76305676 -1.0596328 -0.6831139
-0.7007693 -1.1416495 -0.6727191 -0.98459655 -0.8626161 -1.0554638 -0.6711556 -2.7676861
-1.405462 -0.8568514 -0.6932894 -0.9790115 -0.6904341 -0.8884767 -1.4394567 -1.069492
-0.9275901 -1.5222219 -0.7845044 -1.022072 -0.9139372 -1.8167156 0.14006056 -0.95796585
-1.0153995 -1.0004804 -1.1750861 -0.4744693 -1.1257865 -0.4482047 -1.2926347 -0.82783175
-0.8076631 -0.75803286 -0.44944063 -0.5434661 -0.6646614 -0.90745324 -0.71481675 -0.021200545
-0.9564521 -0.47032508 -1.3793136 -0.08314773 -0.19710197 -0.641095 -0.26598984 -0.6886531
-1.0740128 0.027779406 -0.68701756 -1.1912873 0.11630111 -0.4771446 -1.2894496 -0.682132
-1.2949864 -0.9932576 -1.2427726 -1.0927104 -0.6246823 -0.88253695 -0.069094405 -1.0256169
-1.1604942 -1.1203756 -0.63376415 -2.562764 -1.7031325 -0.69033897 -0.52563375 -0.48284823
-1.5465881 -1.35335 -0.42785674 -1.2826204 -0.8705976 -0.67953396 -0.9907255 -0.81301767
-0.8106161 -1.9488143 -0.77573687 -1.2130266 -1.2206782 -1.3746059 -0.63766253 -0.61110234
-0.85609955 -1.0794455 -1.3375636 -0.735858 -1.156202 -1.3116835 -1.206847 -0.81626594
-0.6095431 -1.2263436 -0.8220334 0.04818012 -0.5278437 -0.46463543 -1.3069471 -3.2298872
-1.2313062 -0.61848646 -0.984218 -0.44625413 -0.5350022 -0.087697804 -0.65375435 -0.23732053
-0.01958026 -0.95585203 -1.064502 -0.88187987 -0.88358855 -1.6167942 -0.1389987 -1.403528
-0.7945501 -0.65243435 -0.47744367 -0.44409066 -0.7098542 -1.9334991 -1.0287699 -0.28486547
-0.20600809 -0.8268032 -0.23881881 -0.3218084 -0.73529506 -0.8081659 -0.95283246 -1.3479253
-0.3645918 -0.9878758 -1.2729601 -1.0426924 -1.3357912 -0.3380663 -0.035925556 -0.069111995
-0.908123 -2.603065 -0.22913869 -0.83967155 -1.3956096 -1.5290487 -2.2889392 -1.6328254
-1.1037145 -0.3610254 -0.53184843 -0.8515023 -2.0011683 -0.880735 -0.57913166 -0.5810944
-0.943541 0.21351138 0.1302606 -1.000409 -0.9682297 -0.3321645 -1.3922187 -0.73580563
-0.3130529 -1.0997204 -1.3314553 -0.57214534 -1.1351728 -0.24248426 -0.5422647 -1.5102242
-0.57376385 -1.6435231 -1.5255139 -0.8062576 -0.83935 -0.94916266 -0.5873541 -1.1757126
-1.0367028 -0.5777478 -0.86941487 -0.8614205 -0.77184147 -1.2460309 -1.3873464 -0.6413238
-0.72903734 -0.7471205 -1.1823024 -0.7816208 -1.1437559 -0.9705982 -0.78371364 -0.5934881

gru.bias_hh_l0 f4 [768]
00000000: 8762 6c3e c06a 24bf 2e42 f3be 348a babe
00000010: 9fd4 c1bf 7793 69bf 8ae9 47bf 8917 04c0
00000020: 3b73 8dbf 6f3b 54bf 7a52 67bf 2e1c 37bf
00000030: f5fe cfbd 34cc e3be 4502 63bf d621 22bf
00000040: 3794 a3bf 929a 7ebf ccac 62bf f1c3 4abf
00000050: 3c32 a6bf 52a2 1dbf a0d8 4cbf 87eb 58bf
00000060: 2545 96bf 2bbc 1abf 7432 5ebf 011e 5ebf
00000070: c4d9 05c0 0bb9 51bf a2b7 71bf 6a3b 12bd
00000080: 24e8 a0bf d93c 7abf 58e9 56be c5c1 a5bf
00000090: 363b d3bd 9abd 24bf 11d1 72bf 90ad c9bf
000000a0: ceb8 85bf 34f1 36bf eb12 b5bf 2cc4 73bf
000000b0: 7907 75bf 1891 0ec0 1163 01bf 8e15 93bf
000000c0: fe8c a4bf 053a 69bf 953f d4bf ea99 4fbd
000000d0: b953 72bf 2e05 4bbf 78b0 8cbf f3c9 33bf
000000e0: 1684 1cbf 8046 8cbf e26d 45bf bb00 76bf
000000f0: d5a1 69bf 0383 83bf 701b 37bf b928 30c0
00000100: 774a bebf e619 73bf ab34 3dbf f3c0 79bf
00000110: 0dbc 16bf 8ecd 77bf 3c86 bcbf 7f71 91bf
00000120: e6e9 7dbf ed50 bfbf a9a1 3ebf 553c 77bf
00000130: 8d48 5fbf defa e6bf e8a1 173e 6770 71bf
00000140: bacd 84bf 57be 66bf abc9 96bf 3f98 07bf
00000150: 0c10 8ebf c316 f6be a3f9 a0bf a6b2 6bbf
00000160: b4d3 4cbf ba7c 40bf 0b44 f6be 71d0 06bf
00000170: 06d0 39bf 5b6c 65bf 915d 3cbf 26f7 dbbc
00000180: 0542 78bf 952a ffbe e881 b1bf 5338 37be
00000190: 58d7 f9bd c3b0 24bf 1ab6 96be fa6e 36bf
000001a0: ffa6 8ebf 8275 b2bc 8131 3abf 4701 93bf
000001b0: 5dc2 983d f806 ebbe df44 a4bf 12e5 22bf
000001c0: c515 a2bf 750c 7cbf e9ec 9fbf a140 9abf
000001d0: 14dd 26bf 5c82 60bf 1a21 0abe e3d4 7dbf
000001e0: d87c 99bf 2ed7 8ebf cdd2 29bf 7251 1ec0
000001f0: aff5 d7bf bd75 46bf d2fb 08bf 71e8 11bf
00000200: e1fd c9bf b359 9ebf 9a24 d7be e780 a2bf
00000210: 4d52 6dbf 5831 20bf ec91 80bf 9f6c 4ebf
00000220: 7e92 37bf ffc4 fabf c72d 39bf d948 aabf
00000230: 5ffa a7bf 1b21 a8bf 496d 1bbf ef28 16bf
00000240: c5e7 53bf d3f4 7fbf 5dd1 b2bf 21c4 3abf
00000250: f963 8fbf 4a61 a4bf ddaa 9dbf ae7a 5dbf
00000260: eb51 16bf 878b 9dbf b7a7 57bf 4ee9 493d
00000270: a83c ffbe 3ca0 f5be 217d a5bf 7937 4dc0
00000280: b4a3 aabf ec94 13bf f38e 7abf 0496 eabe
00000290: 2313 04bf adc5 68bd d900 47bf a422 93be
000002a0: 0783 70bd 1587 83bf e930 81bf 9a32 62bf
000002b0: 7fb2 43bf 8fa8 d6bf 45fa 3fbe 270c b0bf
000002c0: 0084 3dbf 9b58 26bf ae94 09bf 0778 e6be
000002d0: 466f 4bbf 72d9 f5bf e614 73bf 080e 5abe
000002e0: a4c1 fdbd abf8 60bf b0e4 3abe c5c0 cdbe
000002f0: 996f 32bf c28b 5abf f6c4 80bf 5cd2 b4bf
00000300: 77f0 c4be 297b 7cbf 2fe7 a4bf 33f5 74bf
00000310: b520 b3bf 524e bcbe 0ff8 31bd ae1c 3ebd
00000320: 498b 62bf 0451 2ac0 5bc9 85be ca67 5abf
00000330: 2023 abbf ab43 c5bf d8ef 0fc0 aa09 c3bf
00000340: 8bee 88bf 8602 babe e7fe 12bf abda 60bf
00000350: 5a76 fabf 5df3 56bf bd55 22bf 20db 14bf
00000360: cac6 65bf 49e1 5a3e 462f 283e db77 80bf
00000370: 3edd 79bf 9226 d5be 84d4 a3bf 6559 36bf
00000380: 4487 9abe b6a9 95bf 0bae b2bf 753b 1dbf
00000390: 6ed2 8fbf da2e 5cbe 81b6 0abf 5d72 bebf
000003a0: 8e94 1cbf 7889 c5bf ab08 c5bf c94c 37bf
000003b0: 4a12 64bf c5b0 5ebf 5320 21bf 638e 8cbf
000003c0: d9ea 80bf f8e2 13bf f849 63bf 1a70 5dbf
000003d0: f69d 5ebf 2068 a0bf abbb b6bf 22dc 35bf
000003e0: 8e6f 38bf 91c3 3dbf 8a52 9abf 958e 48bf
000003f0: 28a4 8bbf efe7 71bf e16d 44bf e699 14bf
0.2308446 -0.6422539 -0.4751143 -0.36433566 -1.5143012 -0.9124064 -0.7809073 -2.0639365
-1.105079 -0.8290319 -0.90360224 -0.71527374 -0.10156051 -0.44491732 -0.8867534 -0.6333288
-1.2779607 -0.99454606 -0.8854492 -0.7920523 -1.298408 -0.61575806 -0.80018044 -0.84734386
-1.1739851 -0.6044337 -0.86795735 -0.8676453 -2.0914164 -0.8192298 -0.94420826 -0.035701193
-1.2570844 -0.97749096 -0.20987451 -1.2949759 -0.10314028 -0.6435181 -0.9485026 -1.5756092
-1.0447023 -0.71461797 -1.4146398 -0.9522121 -0.9571453 -2.2276058 -0.5054179 -1.1490953
-1.2855527 -0.91104156 -1.6581904 -0.050683893 -0.94659 -0.7930478 -1.0991354 -0.70230025
-0.6113905 -1.0959015 -0.7712079 -0.96094865 -0.9126256 -1.0274357 -0.7152624 -2.7524855
-1.4866475 -0.9496139 -0.7390849 -0.9756004 -0.5888069 -0.96798027 -1.4728465 -1.1362761
-0.99185026 -1.4946572 -0.74465424 -0.96576434 -0.8722008 -1.8045309 0.14807856 -0.9431214
-1.0375283 -0.90134186 -1.1780294 -0.52966684 -1.1098647 -0.4806424 -1.2576183 -0.9206947
-0.80010533 -0.7519032 -0.48098788 -0.52661806 -0.72583044 -0.8961846 -0.7358027 -0.026851248
-0.9697574 -0.49837175 -1.3867769 -0.1789258 -0.12199277 -0.64332217 -0.29435807 -0.71263087
-1.1144713 -0.021784548 -0.72731787 -1.1484765 0.07458947 -0.45903754 -1.2833518 -0.63630784
-1.2662894 -0.9845651 -1.2494174 -1.2050973 -0.6518109 -0.8769891 -0.1348919 -0.99152964
-1.1991224 -1.1159418 -0.6633728 -2.473721 -1.6871852 -0.77523404 -0.5350925 -0.569953
-1.5780603 -1.2371124 -0.42020112 -1.2695588 -0.92703706 -0.6257529 -1.0044532 -0.8063449
-0.71707904 -1.9591368 -0.72335476 -1.3303481 -1.3123282 -1.3135103 -0.6071363 -0.5865621
-0.8277553 -0.9998295 -1.3970143 -0.7295552 -1.1202384 -1.284219 -1.2317768 -0.8651532
-0.58718747 -1.2308205 -0.8424029 0.049294762 -0.49850965 -0.47973812 -1.2928811 -3.2065108
-1.3331208 -0.5764911 -0.97874373 -0.45817578 -0.515917 -0.056829143 -0.7773567 -0.28737366
-0.058718707 -1.0275599 -1.0093051 -0.8835846 -0.7644424 -1.677019 -0.18747814 -1.3753709
-0.7402954 -0.6497895 -0.5374249 -0.4501345 -0.79466665 -1.9206984 -0.94953763 -0.21294415
-0.1239045 -0.8787944 -0.182513 -0.40186134 -0.69701535 -0.85369503 -1.0060108 -1.4126697
-0.3846471 -0.9862543 -1.2883052 -0.95686644 -1.3994356 -0.36778504 -0.043449458 -0.04641407
-0.8849378 -2.6611948 -0.26130185 -0.8531462 -1.3370094 -1.5411276 -2.249014 -1.5237324
-1.0697798 -0.3633005 -0.574202 -0.8783366 -1.9567368 -0.8396509 -0.63412076 -0.5814686
-0.89756453 0.21375002 0.16424283 -1.0036577 -0.97603214 -0.4163099 -1.279923 -0.71230155
-0.30181324 -1.1692417 -1.3959364 -0.6141885 -1.1236093 -0.21502247 -0.5418473 -1.4878651
-0.61164176 -1.5432577 -1.539327 -0.7160154 -0.89090407 -0.8698848 -0.6293995 -1.0980953
-1.007167 -0.577682 -0.8878474 -0.8649918 -0.8695978 -1.2531776 -1.4276022 -0.7103902
-0.7204522 -0.74126536 -1.2056439 -0.7834256 -1.0909472 -0.9449453 -0.7673016 -0.5804733

fc.weight f4 [16, 256]
00000000: a5e3 f5bb 3faa 803e 6115 1a3d 460c 413d
00000010: 13f5 c73c 5895 b2bd b746 fcbc 46e4 3cbd
00000020: 66a8 7b3d ed83 a2bd b57a b8bd 8d67 0fbd
00000030: abef 593d e3bf 77b9 6503 b4bd 417a 59be
00000040: 30f5 f63e c6c1 2fbd d3dc fe3c 1a8d 003d
00000050: 0e26 d4bd ea07 41be 06ec 123d 6fc7 92bd
00000060: 4d38 683b ac74 23bc 15cc afbc e59b 023d
00000070: 8ddb 9b3d 3505 5bbc 7c34 113e c5e4 173d
00000080: 320b cbbb ae66 35bc e426 e0bc 44e6 6c3d
00000090: 39d8 11bb e6ce 73bb 015f 98bc d151 88bd
000000a0: 24c7 733e 2ae6 873d 3241 8a3e 8048 5c3c
000000b0: 5676 fdbb 6ae1 0dbd 776c 21be 4aea a6ba
000000c0: 3888 aabc 96c4 ed3c c2d5 d6bc b8f5 45bd
000000d0: 61c5 babd 78d5 f8bc 761f 313c 41a1 b93d
000000e0: 43a5 b63c 2353 7a3d 747c 0fbc 12fa 1f3d
000000f0: 2192 3fbd 1d8a 19bf da5a d1bb 2d2b 1a3c
00000100: f682 50bb 2228 b2bd 91ec 8c3c 89cc 933e
00000110: 3f66 55bd cbfa d43d 4009 aebb a3d2 1abe
00000120: 591f 273c 306b 3d3d e251 8fbd bf1e febc
00000130: 4fe7 353f 072e 563c 2b4d 003c ee04 533d
00000140: 8467 a13b be09 703d b067 6b3e 281b 703f
00000150: 8a4c 1c3d 2d48 4b3c 9844 c53c fa55 10bf
00000160: 4566 7bbe 229a a23d 709b 4b3c 3be1 9fba
00000170: e9a4 94bd b22b b33e 6422 873c 53c3 353a
00000180: b35e 103d 8cfe 68bd 6336 00be 3dff b6bd
00000190: 2b49 9ebc 19f1 0e3e 48be 773d 4419 5d3d
000001a0: dcfa 6b3c 2cf6 8ebc 1de5 36bd a4b9 e0bc
000001b0: 8f92 babc b11c 2fbd 3093 c73c 7e83 5fbc
000001c0: e0c7 1d3d 030a 163d 697f 603d 2a0c edbc
000001d0: 556d 6c3f 3b27 433d b037 8ebc 1f9c dfbd
000001e0: f24f 123e 54f5 d93d 451a 5b3d 7ff3 be3d
000001f0: c428 173d ea9c 16bc 6227 3dbe 50d4 30be
00000200: b84b 6c3d 6df3 823c 2144 8fbc 5e28 4dbe
00000210: 6129 603c c431 e2bd af8a 4bbc 449f 6f3b
00000220: 7cc5 b93c 08ba e4bc aab0 3e3c 2def 863b
00000230: 8b07 5a3c e7e6 9ebd 320f 933d 9878 1c3c
00000240: fec8 a53c ab98 423d 3fdd 12bd dbfe 803d
00000250: 0e2e 66bd 9885 7cbb ca9c dcbe a5c7 4dbd
00000260: 47e7 48bc c3fd 0ebd 52bc ebbc 1b73 a3bc
00000270: 7aec 3dbd 6ec6 ddbd 55e7 0a3e 192c 593d
00000280: 4c24 babd 69fa 963d 4846 52bd 9eab 51bc
00000290: 07a4 ac3b ac8b 933c 6b5d f23b 2680 fc3d
000002a0: 0c57 1dbd b04e 94bc e1ec 0c3c 3f45 723d
000002b0: f043 783f 4c75 47bc ea31 52bc f2a5 bd3c
000002c0: 1316 8bbd 82ad 88be 05c6 c7bc 66c0 78ba
000002d0: 68b8 813d 7ba5 47bd 3c2d 20bc bbfa 383c
000002e0: 82e2 9f3d 81ab 76be 9a88 8fbc 8f78 4d3d
000002f0: 1f7a 6b3d e3a6 bcbc 24c0 6d3c 7082 a83d
00000300: 4749 323d 80e6 b6ba dd3a b6bc c24f 5bbc
00000310: 5f48 363f d821 a63e 8871 4c3d 9716 843c
00000320: 6225 04be 7c5a 54bd df57 fdbc c523 3dbf
00000330: f860 b7bd 67d2 bbbd cd18 26bd 3053 403d
00000340: 02a6 44ba c4db adbc eaed 883f 9329 a0be
00000350: 76b0 c0bd 7967 4dbc 35a9 2bbe 2ef2 153d
00000360: 62e0 58bb ed15 0dbc babf d63c 7572 da3e
00000370: 8669 10bf a456 c6bc 645f 39bd e9b6 6fbc
00000380: 66e9 863c 41de c0bc 73d1 003d f62b e43c
00000390: 6ff0 293d 46b0 cabc 2bc0 f53d b204 94bc
000003a0: 2601 943c 4eb0 ba3c db58 06bd b69c f5bb
000003b0: 2851 a63d efe4 8fbe aabe 923d 03c7 82bc
000003c0: 4de6 44be 30c8 34be 9d79 e4bc 468e 963b
000003d0: bb30 cb3e f692 a3bd 805f 343d 441e 2d3c
000003e0: 9511 9339 1c50 583d 099c 15bc 9cd0 063f
000003f0: 7d76 5abd 0517 8cbc 55b0 653c ce6b 10bc
-0.007503944 0.25129887 0.037618045 0.047130845 0.024408853 -0.08719891 -0.030795438 -0.046116136
0.061439894 -0.07935319 -0.090077795 -0.035010863 0.05320708 -0.00023627239 -0.0878971 -0.21238042
0.48233938 -0.042909406 0.031111157 0.031384565 -0.10358821 -0.18850675 0.03586962 -0.07166945
0.0035433949 -0.009976547 -0.021459619 0.031886954 0.07610235 -0.013367941 0.14180177 0.037083406
-0.006196403 -0.011071844 -0.027362294 0.057836786 -0.0022254123 -0.0037202179 -0.018599989 -0.0665623
0.23806435 0.06635697 0.27002865 0.01344502 -0.007735054 -0.0346388 -0.15764032 -0.0012734619
-0.020816907 0.029024404 -0.026224975 -0.04833004 -0.09119678 -0.030375227 0.0108107235 0.0906396
0.0222956 0.06111444 -0.008757699 0.039056845 -0.04677022 -0.5997637 -0.006389004 0.009409708
-0.003181634 -0.08699061 0.017202647 0.28866985 -0.052099463 0.103993975 -0.0053111613 -0.15119414
0.010200345 0.0462448 -0.0699804 -0.03102052 0.71056074 0.013072497 0.007830898 0.051518373
0.00492567 0.05860304 0.22988772 0.9379144 0.03815893 0.012407345 0.02408056 -0.5638119
-0.24550731 0.07939555 0.012427196 -0.0012197861 -0.072580166 0.34994274 0.01649589 0.00069337076
0.035246562 -0.05688338 -0.12520747 -0.089354016 -0.019321999 0.13959159 0.0604842 0.053979173
0.014403071 -0.017451368 -0.044652093 -0.02743227 -0.022774963 -0.04275197 0.024362177 -0.01364219
0.038520694 0.03663064 0.054809008 -0.028936464 0.9235433 0.047644835 -0.017360538 -0.109184496
0.14288309 0.10642496 0.05349185 0.09323787 0.03690411 -0.009192685 -0.18472055 -0.17268491
0.0576894 0.015985215 -0.017488541 -0.2003493 0.0136817405 -0.11044648 -0.012423201 0.0036563436
0.022677176 -0.027920738 0.0116388 0.0041178674 0.013307462 -0.07758885 0.07180633 0.009550236
0.020237442 0.047508877 -0.035855528 0.0629861 -0.056196265 -0.0038531777 -0.4308837 -0.050239224
-0.012262172 -0.034909975 -0.028776322 -0.019952348 -0.0463681 -0.10828863 0.13564809 0.05302057
-0.09088954 0.07371981 -0.051336557 -0.012797264 0.005268577 0.018010937 0.00739639 0.1232913
-0.038413092 -0.018103927 0.008601398 0.05914807 0.96978664 -0.012173962 -0.012829283 0.023150418
-0.0679132 -0.26694876 -0.024386415 -0.0009489119 0.06334001 -0.0487418 -0.00977641 0.011290248
0.07806875 -0.24088861 -0.017521191 0.0501638 0.05748951 -0.023028797 0.014511142 0.08228004
0.043526914 -0.0013954192 -0.022244865 -0.013385715 0.7120418 0.32447696 0.04991296 0.016124053
-0.12904885 -0.051844105 -0.03092569 -0.73882705 -0.08954042 -0.091709904 -0.040550996 0.046954334
-0.0007501544 -0.021222956 1.0697606 -0.3128172 -0.09408657 -0.012536877 -0.16763766 0.036607914
-0.0033092727 -0.008611185 0.02621447 0.4266545 -0.56411016 -0.024211235 -0.045256987 -0.0146310115
0.016468715 -0.023543479 0.031449746 0.027852993 0.04148906 -0.024742257 0.11999544 -0.018068645
0.018066954 0.022789147 -0.032799583 -0.007495488 0.08120948 -0.2810435 0.071652725 -0.015964037
-0.19228478 -0.1765449 -0.027890021 0.004594597 0.39685616 -0.07987015 0.04403639 0.010566298
0.00028051125 0.052810773 -0.00913144 0.5266206 -0.053335655 -0.01710082 0.014019092 -0.008814765

fc.bias f4 [16]
00000000: e4ae 053d 8f4d 983d 7dcc 263c a53a 20bd
00000010: 7e6f 443d 6014 61bd c5a1 023d 84f7 6ebb
00000020: 5449 4fbc a926 f0bc 0d97 973c b929 a1bc
00000030: 4e9b 553c 0ed4 76bc f24f 04be 54b2 09bd
0.03263749 0.07436668 0.01018059 -0.039118428 0.04795789 -0.05495107 0.031892557 -0.0036463449
-0.01265176 -0.02931531 0.018504644 -0.019673215 0.013037516 -0.015065206 -0.12921122 -0.033617333
